name: "Franggipatchwhole2016jan12"

layers {
  name: "data"
  type: DATA
  top: "data"
  top: "label"
  data_param {
    source: "/media/titanz/Data3TB/backup5-5/Franggi_Imagenet/PR_revised_dataset/patch_LMDB_DATA/Franggi_NewtrainPatchConstrain_fusion_lmdb"
    backend: LMDB
    batch_size: 40
  }
  transform_param {
    crop_size: 227
    mean_file: "/media/titanz/Data3TB/backup5-5/Franggi_Imagenet/PR_revised_dataset/patch_LMDB_DATA/Franggi_NewPatch_meanCONSTRAIN.binaryproto"
    mirror: true
  }
  include: { phase: TRAIN }
}
layers {
  name: "data"
  type: DATA
  top: "data"
  top: "label"
  data_param {
   source: "/media/titanz/Data3TB/backup5-5/Franggi_Imagenet/PR_revised_dataset/patch_LMDB_DATA/Franggi_NewValPatch_lmdb"
   backend: LMDB
   batch_size: 22
  }
  transform_param {
    crop_size: 227
    mean_file: "/media/titanz/Data3TB/backup5-5/Franggi_Imagenet/PR_revised_dataset/patch_LMDB_DATA/Franggi_NewPatch_meanCONSTRAIN.binaryproto"
    mirror: false
  }
  include: { phase: TEST }
}

layers {
  name: "conv1"
  type: CONVOLUTION
  bottom: "data"
  top: "conv1"
  blobs_lr: 1
  blobs_lr: 2
  weight_decay: 1
  weight_decay: 0
  convolution_param {
    num_output: 96
    kernel_size: 11
    stride: 4
    weight_filler {
      type: "gaussian"
      std: 0.01
    }
    bias_filler {
      type: "constant"
      value: 0
    }
  }
  param: "conv1_w"
  param: "conv1_b"
}
layers {
  name: "relu1"
  type: RELU
  bottom: "conv1"
  top: "conv1"
}
layers {
  name: "pool1"
  type: POOLING
  bottom: "conv1"
  top: "pool1"
  pooling_param {
    pool: MAX
    kernel_size: 3
    stride: 2
  }
}
layers {
  name: "norm1"
  type: LRN
  bottom: "pool1"
  top: "norm1"
  lrn_param {
    local_size: 5
    alpha: 0.0001
    beta: 0.75
  }
}
layers {
  name: "conv2"
  type: CONVOLUTION
  bottom: "norm1"
  top: "conv2"
  blobs_lr: 1
  blobs_lr: 2
  weight_decay: 1
  weight_decay: 0
  convolution_param {
    num_output: 256
    pad: 2
    kernel_size: 5
    group: 2
    weight_filler {
      type: "gaussian"
      std: 0.01
    }
    bias_filler {
      type: "constant"
      value: 0.1
    }
  }
  param: "conv2_w"
  param: "conv2_b"
}
layers {
  name: "relu2"
  type: RELU
  bottom: "conv2"
  top: "conv2"
}
layers {
  name: "pool2"
  type: POOLING
  bottom: "conv2"
  top: "pool2"
  pooling_param {
    pool: MAX
    kernel_size: 3
    stride: 2
  }
}
layers {
  name: "norm2"
  type: LRN
  bottom: "pool2"
  top: "norm2"
  lrn_param {
    local_size: 5
    alpha: 0.0001
    beta: 0.75
  }
}
layers {
  name: "conv3"
  type: CONVOLUTION
  bottom: "norm2"
  top: "conv3"
  blobs_lr: 1
  blobs_lr: 2
  weight_decay: 1
  weight_decay: 0
  convolution_param {
    num_output: 384
    pad: 1
    kernel_size: 3
    weight_filler {
      type: "gaussian"
      std: 0.01
    }
    bias_filler {
      type: "constant"
      value: 0
    }
  }
  param: "conv3_w"
  param: "conv3_b"
}
layers {
  name: "relu3"
  type: RELU
  bottom: "conv3"
  top: "conv3"
}

layers {
  name: "pool3"
  type: POOLING
  bottom: "conv3"
  top: "pool3"
  pooling_param {
    pool: MAX
    kernel_size: 3
    stride: 2
  }
}
layers {
  name: "fc6_flickr"
  type: INNER_PRODUCT
  bottom: "pool3"
  top: "fc6_flickr"
  blobs_lr: 1
  blobs_lr: 2
  weight_decay: 1
  weight_decay: 0
  inner_product_param {
    num_output: 2048
    weight_filler {
      type: "gaussian"
      std: 0.005
    }
    bias_filler {
      type: "constant"
      value: 0.1
    }
  }
}
layers {
  name: "relu6"
  type: RELU
  bottom: "fc6_flickr"
  top: "fc6_flickr"
}
layers {
  name: "drop6"
  type: DROPOUT
  bottom: "fc6_flickr"
  top: "fc6_flickr"
  dropout_param {
    dropout_ratio: 0.5
  }
}


############################################
layers {
  name: "data_WHO"
  type: DATA
  top: "data_WHO"
  #top: "label1"
  data_param {
    source: "/media/titanz/Data3TB/backup5-5/Franggi_Imagenet/PR_revised_dataset/whole_leaf_LMDB_DATA/Franggi_NewtrainWholeConstrain_fusion_lmdb"
    backend: LMDB
    batch_size: 40
  }
  transform_param {
    crop_size: 227
    mean_file: "/media/titanz/Data3TB/caffe_march2015/example/20140324_imagenet/imagenet_mean.binaryproto"
    mirror: true
  }
  include: { phase: TRAIN }
}
layers {
  name: "data_WHO"
  type: DATA
  top: "data_WHO"
  #top: "label1"
  data_param {
   source: "/media/titanz/Data3TB/backup5-5/Franggi_Imagenet/PR_revised_dataset/whole_leaf_LMDB_DATA/Franggi_NewValWhole_lmdb"
   backend: LMDB
   batch_size: 22
  }
  transform_param {
    crop_size: 227
    mean_file: "/media/titanz/Data3TB/caffe_march2015/example/20140324_imagenet/imagenet_mean.binaryproto"
    mirror: false
  }
  include: { phase: TEST }
}

layers {
  name: "conv1_WHO"
  type: CONVOLUTION
  bottom: "data_WHO"
  top: "conv1_WHO"
  blobs_lr: 1
  blobs_lr: 2
  weight_decay: 1
  weight_decay: 0
  convolution_param {
    num_output: 96
    kernel_size: 11
    stride: 4
    weight_filler {
      type: "gaussian"
      std: 0.01
    }
    bias_filler {
      type: "constant"
      value: 0
    }
  }
  param: "conv1_w"
  param: "conv1_b"
}
layers {
  name: "relu1_WHO"
  type: RELU
  bottom: "conv1_WHO"
  top: "conv1_WHO"
}
layers {
  name: "pool1_WHO"
  type: POOLING
  bottom: "conv1_WHO"
  top: "pool1_WHO"
  pooling_param {
    pool: MAX
    kernel_size: 3
    stride: 2
  }
}
layers {
  name: "norm1_WHO"
  type: LRN
  bottom: "pool1_WHO"
  top: "norm1_WHO"
  lrn_param {
    local_size: 5
    alpha: 0.0001
    beta: 0.75
  }
}
layers {
  name: "conv2_WHO"
  type: CONVOLUTION
  bottom: "norm1_WHO"
  top: "conv2_WHO"
  blobs_lr: 1
  blobs_lr: 2
  weight_decay: 1
  weight_decay: 0
  convolution_param {
    num_output: 256
    pad: 2
    kernel_size: 5
    group: 2
    weight_filler {
      type: "gaussian"
      std: 0.01
    }
    bias_filler {
      type: "constant"
      value: 0.1
    }
  }
  param: "conv2_w"
  param: "conv2_b"
}
layers {
  name: "relu2_WHO"
  type: RELU
  bottom: "conv2_WHO"
  top: "conv2_WHO"
}
layers {
  name: "pool2_WHO"
  type: POOLING
  bottom: "conv2_WHO"
  top: "pool2_WHO"
  pooling_param {
    pool: MAX
    kernel_size: 3
    stride: 2
  }
}
layers {
  name: "norm2_WHO"
  type: LRN
  bottom: "pool2_WHO"
  top: "norm2_WHO"
  lrn_param {
    local_size: 5
    alpha: 0.0001
    beta: 0.75
  }
}
layers {
  name: "conv3_WHO"
  type: CONVOLUTION
  bottom: "norm2_WHO"
  top: "conv3_WHO"
  blobs_lr: 1
  blobs_lr: 2
  weight_decay: 1
  weight_decay: 0
  convolution_param {
    num_output: 384
    pad: 1
    kernel_size: 3
    weight_filler {
      type: "gaussian"
      std: 0.01
    }
    bias_filler {
      type: "constant"
      value: 0
    }
  }
  param: "conv3_w"
  param: "conv3_b"
}
layers {
  name: "relu3_WHO"
  type: RELU
  bottom: "conv3_WHO"
  top: "conv3_WHO"
}

layers {
  name: "pool3_WHO"
  type: POOLING
  bottom: "conv3_WHO"
  top: "pool3_WHO"
  pooling_param {
    pool: MAX
    kernel_size: 3
    stride: 2
  }
}
layers {
  name: "fc6_WHO"
  type: INNER_PRODUCT
  bottom: "pool3_WHO"
  top: "fc6_WHO"
  blobs_lr: 1
  blobs_lr: 2
  weight_decay: 1
  weight_decay: 0
  inner_product_param {
    num_output: 2048
    weight_filler {
      type: "gaussian"
      std: 0.005
    }
    bias_filler {
      type: "constant"
      value: 0.1
    }
  }
}
layers {
  name: "relu6_WHO"
  type: RELU
  bottom: "fc6_WHO"
  top: "fc6_WHO"
}
layers {
  name: "drop6_WHO"
  type: DROPOUT
  bottom: "fc6_WHO"
  top: "fc6_WHO"
  dropout_param {
    dropout_ratio: 0.5
  }
}


layers {
  name: "concat"
  bottom: "fc6_WHO"
  bottom: "fc6_flickr"
  top: "concat"
  type : CONCAT
  concat_param {
    concat_dim: 1
  }
}

layers {
  name: "fc8_elit"
  type: INNER_PRODUCT
  bottom: "concat"
  top: "fc8_elit"
  blobs_lr: 1
  blobs_lr: 2
  weight_decay: 1
  weight_decay: 0
  inner_product_param {
    num_output: 44
    weight_filler {
      type: "gaussian"
      std: 0.01
    }
    bias_filler {
      type: "constant"
      value: 0
    }
  }
}

layers {
  name: "loss_flickr"
  type: SOFTMAX_LOSS
  bottom: "fc8_elit"
  bottom: "label"
}
layers {
  name: "accuracy_flickr"
  type: ACCURACY
  bottom: "fc8_elit"
  bottom: "label"
  top: "accuracy_flickr"
  include: { phase: TEST }
}
